Importing data files...
['ToyModelSim_e2_1.csv']
Splitting data into training and test sets with a ratio of: 0.2
Total number of training samples is 1600
Total number of test samples is 400
Length of an output spectrum is 300
Generating torch datasets
Importing data files...
['Pretrain_e2_1.csv']
Total number of pretraining samples is 2000
Length of an output parameter set is 312
Generating torch datasets
Geometry boundary is set to: [20, 200, 20, 100]
Making network now
Forward(
  (linears): ModuleList(
    (0): Linear(in_features=8, out_features=500, bias=True)
    (1): Linear(in_features=500, out_features=500, bias=True)
    (2): Linear(in_features=500, out_features=13, bias=True)
  )
  (bn_linears): ModuleList(
    (0): BatchNorm1d(500, eps=1e-05, momentum=0.1, affine=True, track_running_stats=True)
    (1): BatchNorm1d(500, eps=1e-05, momentum=0.1, affine=True, track_running_stats=True)
    (2): BatchNorm1d(13, eps=1e-05, momentum=0.1, affine=True, track_running_stats=True)
  )
  (convs): ModuleList(
    (0): ConvTranspose1d(1, 4, kernel_size=(8,), stride=(2,), padding=(3,))
    (1): ConvTranspose1d(4, 4, kernel_size=(5,), stride=(1,), padding=(2,))
    (2): ConvTranspose1d(4, 4, kernel_size=(5,), stride=(1,), padding=(2,))
    (3): Conv1d(4, 1, kernel_size=(1,), stride=(1,))
  )
)
Start training now...
Starting pre-training process
This is Epoch 0, pretraining loss 1.08908
Saving the model...
This is Epoch 20, pretraining loss 0.69326
Saving the model...
This is Epoch 40, pretraining loss 0.60992
Saving the model...
This is Epoch 60, pretraining loss 0.53560
Saving the model...
This is Epoch 80, pretraining loss 0.46929
Saving the model...
…
